2019-06-06 00:03:19,998:WARNING: Loading Model
2019-06-06 00:03:20,179:WARNING: Model Loaded
2019-06-06 00:03:21,680:WARNING: ResNet(
  (features): Sequential(
    (0): Conv2d(1, 64, kernel_size=(7, 7), stride=(2, 2), padding=(3, 3), bias=False)
    (1): BatchNorm2d(64, eps=1e-05, momentum=0.1, affine=True, track_running_stats=True)
    (2): ReLU(inplace)
    (3): MaxPool2d(kernel_size=3, stride=2, padding=1, dilation=1, ceil_mode=False)
    (4): IdentityBlock(
      (Convpass): Sequential(
        (0): Conv2d(64, 160, kernel_size=(5, 5), stride=(1, 1), padding=(2, 2))
        (1): BatchNorm2d(160, eps=1e-05, momentum=0.1, affine=True, track_running_stats=True)
        (2): ReLU(inplace)
        (3): Conv2d(160, 256, kernel_size=(5, 5), stride=(1, 1), padding=(2, 2))
        (4): BatchNorm2d(256, eps=1e-05, momentum=0.1, affine=True, track_running_stats=True)
        (5): ReLU(inplace)
        (6): Conv2d(256, 256, kernel_size=(5, 5), stride=(2, 2), padding=(2, 2))
      )
      (identityPass): Conv2d(64, 256, kernel_size=(5, 5), stride=(2, 2), padding=(2, 2))
    )
    (5): BatchNorm2d(256, eps=1e-05, momentum=0.1, affine=True, track_running_stats=True)
    (6): ReLU(inplace)
    (7): MaxPool2d(kernel_size=3, stride=2, padding=1, dilation=1, ceil_mode=False)
    (8): IdentityBlock(
      (Convpass): Sequential(
        (0): Conv2d(256, 384, kernel_size=(7, 7), stride=(1, 1), padding=(3, 3))
        (1): BatchNorm2d(384, eps=1e-05, momentum=0.1, affine=True, track_running_stats=True)
        (2): ReLU(inplace)
        (3): Conv2d(384, 512, kernel_size=(7, 7), stride=(1, 1), padding=(3, 3))
        (4): BatchNorm2d(512, eps=1e-05, momentum=0.1, affine=True, track_running_stats=True)
        (5): ReLU(inplace)
        (6): Conv2d(512, 512, kernel_size=(7, 7), stride=(3, 3), padding=(3, 3))
      )
      (identityPass): Conv2d(256, 512, kernel_size=(7, 7), stride=(3, 3), padding=(3, 3))
    )
    (9): BatchNorm2d(512, eps=1e-05, momentum=0.1, affine=True, track_running_stats=True)
    (10): ReLU(inplace)
    (11): MaxPool2d(kernel_size=3, stride=1, padding=0, dilation=1, ceil_mode=False)
    (12): Conv2d(512, 512, kernel_size=(3, 3), stride=(1, 1))
    (13): BatchNorm2d(512, eps=1e-05, momentum=0.1, affine=True, track_running_stats=True)
    (14): ReLU(inplace)
    (15): MaxPool2d(kernel_size=2, stride=2, padding=0, dilation=1, ceil_mode=False)
  )
  (classifier): Sequential(
    (0): Dropout(p=0.5)
    (1): Linear(in_features=512, out_features=256, bias=True)
    (2): BatchNorm1d(256, eps=1e-05, momentum=0.1, affine=True, track_running_stats=True)
    (3): ReLU(inplace)
    (4): Linear(in_features=256, out_features=2, bias=True)
  )
)
2019-06-06 00:03:25,746:WARNING: Test: [9/10]
    Time 1.219 (0.403)
    Loss 33.6144 (47.6360)
    Accuracy Diabetes@ 0.121(0.1209)
        Diabetes F1 0.2147(0.2147)
            Diabetes recall 1.0000(1.0000)
            Diabetes precision 0.1203(0.1203)
    Accuracy Glaucoma@ 0.881(0.8812)
        Glaucoma F1 nan(nan)
            Glaucoma recall 0.0000(0.0000)
…
            Glaucoma precision 0.9113(0.9113)

2019-06-07 10:48:08,127:WARNING: Test: [16/17]
    Time 0.056 (0.120)
    Loss 1.8179 (8.3956)
    Accuracy Diabetes@ 0.996(0.9964)
        Diabetes F1 0.9492(0.9492)
            Diabetes recall 0.9825(0.9825)
            Diabetes precision 0.9180(0.9180)
    Accuracy Glaucoma@ 0.990(0.9903)
        Glaucoma F1 0.9350(0.9350)
            Glaucoma recall 0.9664(0.9664)
            Glaucoma precision 0.9055(0.9055)

2020-04-22 22:35:48,723:WARNING: Loading Model
2020-04-22 22:35:49,028:WARNING: Model Loaded
2020-04-22 22:35:50,015:WARNING: ResNet(
  (features): Sequential(
    (0): Conv2d(1, 64, kernel_size=(7, 7), stride=(2, 2), padding=(3, 3), bias=False)
    (1): BatchNorm2d(64, eps=1e-05, momentum=0.1, affine=True, track_running_stats=True)
    (2): ReLU(inplace=True)
    (3): MaxPool2d(kernel_size=3, stride=2, padding=1, dilation=1, ceil_mode=False)
    (4): IdentityBlock(
      (Convpass): Sequential(
        (0): Conv2d(64, 160, kernel_size=(5, 5), stride=(1, 1), padding=(2, 2))
        (1): BatchNorm2d(160, eps=1e-05, momentum=0.1, affine=True, track_running_stats=True)
        (2): ReLU(inplace=True)
        (3): Conv2d(160, 256, kernel_size=(5, 5), stride=(1, 1), padding=(2, 2))
        (4): BatchNorm2d(256, eps=1e-05, momentum=0.1, affine=True, track_running_stats=True)
        (5): ReLU(inplace=True)
        (6): Conv2d(256, 256, kernel_size=(5, 5), stride=(2, 2), padding=(2, 2))
      )
      (identityPass): Conv2d(64, 256, kernel_size=(5, 5), stride=(2, 2), padding=(2, 2))
    )
    (5): BatchNorm2d(256, eps=1e-05, momentum=0.1, affine=True, track_running_stats=True)
    (6): ReLU(inplace=True)
    (7): MaxPool2d(kernel_size=3, stride=2, padding=1, dilation=1, ceil_mode=False)
    (8): IdentityBlock(
      (Convpass): Sequential(
        (0): Conv2d(256, 384, kernel_size=(7, 7), stride=(1, 1), padding=(3, 3))
        (1): BatchNorm2d(384, eps=1e-05, momentum=0.1, affine=True, track_running_stats=True)
        (2): ReLU(inplace=True)
        (3): Conv2d(384, 512, kernel_size=(7, 7), stride=(1, 1), padding=(3, 3))
        (4): BatchNorm2d(512, eps=1e-05, momentum=0.1, affine=True, track_running_stats=True)
        (5): ReLU(inplace=True)
        (6): Conv2d(512, 512, kernel_size=(7, 7), stride=(3, 3), padding=(3, 3))
      )
      (identityPass): Conv2d(256, 512, kernel_size=(7, 7), stride=(3, 3), padding=(3, 3))
    )
    (9): BatchNorm2d(512, eps=1e-05, momentum=0.1, affine=True, track_running_stats=True)
    (10): ReLU(inplace=True)
    (11): MaxPool2d(kernel_size=3, stride=1, padding=0, dilation=1, ceil_mode=False)
    (12): Conv2d(512, 512, kernel_size=(3, 3), stride=(1, 1))
    (13): BatchNorm2d(512, eps=1e-05, momentum=0.1, affine=True, track_running_stats=True)
    (14): ReLU(inplace=True)
    (15): MaxPool2d(kernel_size=2, stride=2, padding=0, dilation=1, ceil_mode=False)
  )
  (classifier): Sequential(
    (0): Dropout(p=0.5, inplace=False)
    (1): Linear(in_features=512, out_features=256, bias=True)
    (2): BatchNorm1d(256, eps=1e-05, momentum=0.1, affine=True, track_running_stats=True)
    (3): ReLU(inplace=True)
    (4): Linear(in_features=256, out_features=2, bias=True)
  )
)
2020-04-22 22:35:59,327:WARNING: Loading Model
2020-04-22 22:35:59,491:WARNING: Model Loaded
2020-04-22 22:45:19,957:WARNING: Loading Model
2020-04-22 22:45:20,119:WARNING: Model Loaded
2020-04-22 22:45:21,099:WARNING: ResNet(
  (features): Sequential(
    (0): Conv2d(1, 64, kernel_size=(7, 7), stride=(2, 2), padding=(3, 3), bias=False)
    (1): BatchNorm2d(64, eps=1e-05, momentum=0.1, affine=True, track_running_stats=True)
    (2): ReLU(inplace=True)
    (3): MaxPool2d(kernel_size=3, stride=2, padding=1, dilation=1, ceil_mode=False)
    (4): IdentityBlock(
      (Convpass): Sequential(
        (0): Conv2d(64, 160, kernel_size=(5, 5), stride=(1, 1), padding=(2, 2))
        (1): BatchNorm2d(160, eps=1e-05, momentum=0.1, affine=True, track_running_stats=True)
        (2): ReLU(inplace=True)
        (3): Conv2d(160, 256, kernel_size=(5, 5), stride=(1, 1), padding=(2, 2))
        (4): BatchNorm2d(256, eps=1e-05, momentum=0.1, affine=True, track_running_stats=True)
        (5): ReLU(inplace=True)
        (6): Conv2d(256, 256, kernel_size=(5, 5), stride=(2, 2), padding=(2, 2))
      )
      (identityPass): Conv2d(64, 256, kernel_size=(5, 5), stride=(2, 2), padding=(2, 2))
    )
    (5): BatchNorm2d(256, eps=1e-05, momentum=0.1, affine=True, track_running_stats=True)
    (6): ReLU(inplace=True)
    (7): MaxPool2d(kernel_size=3, stride=2, padding=1, dilation=1, ceil_mode=False)
    (8): IdentityBlock(
      (Convpass): Sequential(
        (0): Conv2d(256, 384, kernel_size=(7, 7), stride=(1, 1), padding=(3, 3))
        (1): BatchNorm2d(384, eps=1e-05, momentum=0.1, affine=True, track_running_stats=True)
        (2): ReLU(inplace=True)
        (3): Conv2d(384, 512, kernel_size=(7, 7), stride=(1, 1), padding=(3, 3))
        (4): BatchNorm2d(512, eps=1e-05, momentum=0.1, affine=True, track_running_stats=True)
        (5): ReLU(inplace=True)
        (6): Conv2d(512, 512, kernel_size=(7, 7), stride=(3, 3), padding=(3, 3))
      )
      (identityPass): Conv2d(256, 512, kernel_size=(7, 7), stride=(3, 3), padding=(3, 3))
    )
    (9): BatchNorm2d(512, eps=1e-05, momentum=0.1, affine=True, track_running_stats=True)
    (10): ReLU(inplace=True)
    (11): MaxPool2d(kernel_size=3, stride=1, padding=0, dilation=1, ceil_mode=False)
    (12): Conv2d(512, 512, kernel_size=(3, 3), stride=(1, 1))
    (13): BatchNorm2d(512, eps=1e-05, momentum=0.1, affine=True, track_running_stats=True)
    (14): ReLU(inplace=True)
    (15): MaxPool2d(kernel_size=2, stride=2, padding=0, dilation=1, ceil_mode=False)
  )
  (classifier): Sequential(
    (0): Dropout(p=0.5, inplace=False)
    (1): Linear(in_features=512, out_features=256, bias=True)
    (2): BatchNorm1d(256, eps=1e-05, momentum=0.1, affine=True, track_running_stats=True)
    (3): ReLU(inplace=True)
    (4): Linear(in_features=256, out_features=2, bias=True)
  )
)
2020-04-22 22:46:42,969:WARNING: Loading Model
2020-04-22 22:46:43,145:WARNING: Model Loaded
2020-04-22 22:46:44,175:WARNING: ResNet(
  (features): Sequential(
    (0): Conv2d(1, 64, kernel_size=(7, 7), stride=(2, 2), padding=(3, 3), bias=False)
    (1): BatchNorm2d(64, eps=1e-05, momentum=0.1, affine=True, track_running_stats=True)
    (2): ReLU(inplace=True)
    (3): MaxPool2d(kernel_size=3, stride=2, padding=1, dilation=1, ceil_mode=False)
    (4): IdentityBlock(
      (Convpass): Sequential(
        (0): Conv2d(64, 160, kernel_size=(5, 5), stride=(1, 1), padding=(2, 2))
        (1): BatchNorm2d(160, eps=1e-05, momentum=0.1, affine=True, track_running_stats=True)
        (2): ReLU(inplace=True)
        (3): Conv2d(160, 256, kernel_size=(5, 5), stride=(1, 1), padding=(2, 2))
        (4): BatchNorm2d(256, eps=1e-05, momentum=0.1, affine=True, track_running_stats=True)
        (5): ReLU(inplace=True)
        (6): Conv2d(256, 256, kernel_size=(5, 5), stride=(2, 2), padding=(2, 2))
      )
      (identityPass): Conv2d(64, 256, kernel_size=(5, 5), stride=(2, 2), padding=(2, 2))
    )
    (5): BatchNorm2d(256, eps=1e-05, momentum=0.1, affine=True, track_running_stats=True)
    (6): ReLU(inplace=True)
    (7): MaxPool2d(kernel_size=3, stride=2, padding=1, dilation=1, ceil_mode=False)
    (8): IdentityBlock(
      (Convpass): Sequential(
        (0): Conv2d(256, 384, kernel_size=(7, 7), stride=(1, 1), padding=(3, 3))
        (1): BatchNorm2d(384, eps=1e-05, momentum=0.1, affine=True, track_running_stats=True)
        (2): ReLU(inplace=True)
        (3): Conv2d(384, 512, kernel_size=(7, 7), stride=(1, 1), padding=(3, 3))
        (4): BatchNorm2d(512, eps=1e-05, momentum=0.1, affine=True, track_running_stats=True)
        (5): ReLU(inplace=True)
        (6): Conv2d(512, 512, kernel_size=(7, 7), stride=(3, 3), padding=(3, 3))
      )
      (identityPass): Conv2d(256, 512, kernel_size=(7, 7), stride=(3, 3), padding=(3, 3))
    )
    (9): BatchNorm2d(512, eps=1e-05, momentum=0.1, affine=True, track_running_stats=True)
    (10): ReLU(inplace=True)
    (11): MaxPool2d(kernel_size=3, stride=1, padding=0, dilation=1, ceil_mode=False)
    (12): Conv2d(512, 512, kernel_size=(3, 3), stride=(1, 1))
    (13): BatchNorm2d(512, eps=1e-05, momentum=0.1, affine=True, track_running_stats=True)
    (14): ReLU(inplace=True)
    (15): MaxPool2d(kernel_size=2, stride=2, padding=0, dilation=1, ceil_mode=False)
  )
  (classifier): Sequential(
    (0): Dropout(p=0.5, inplace=False)
    (1): Linear(in_features=512, out_features=256, bias=True)
    (2): BatchNorm1d(256, eps=1e-05, momentum=0.1, affine=True, track_running_stats=True)
    (3): ReLU(inplace=True)
    (4): Linear(in_features=256, out_features=2, bias=True)
  )
)
2020-04-22 22:47:00,917:WARNING: Loading Model
2020-04-22 22:47:01,085:WARNING: Model Loaded
2020-04-22 22:47:02,077:WARNING: ResNet(
  (features): Sequential(
    (0): Conv2d(1, 64, kernel_size=(7, 7), stride=(2, 2), padding=(3, 3), bias=False)
    (1): BatchNorm2d(64, eps=1e-05, momentum=0.1, affine=True, track_running_stats=True)
    (2): ReLU(inplace=True)
    (3): MaxPool2d(kernel_size=3, stride=2, padding=1, dilation=1, ceil_mode=False)
    (4): IdentityBlock(
      (Convpass): Sequential(
        (0): Conv2d(64, 160, kernel_size=(5, 5), stride=(1, 1), padding=(2, 2))
        (1): BatchNorm2d(160, eps=1e-05, momentum=0.1, affine=True, track_running_stats=True)
        (2): ReLU(inplace=True)
        (3): Conv2d(160, 256, kernel_size=(5, 5), stride=(1, 1), padding=(2, 2))
        (4): BatchNorm2d(256, eps=1e-05, momentum=0.1, affine=True, track_running_stats=True)
        (5): ReLU(inplace=True)
        (6): Conv2d(256, 256, kernel_size=(5, 5), stride=(2, 2), padding=(2, 2))
      )
      (identityPass): Conv2d(64, 256, kernel_size=(5, 5), stride=(2, 2), padding=(2, 2))
    )
    (5): BatchNorm2d(256, eps=1e-05, momentum=0.1, affine=True, track_running_stats=True)
    (6): ReLU(inplace=True)
    (7): MaxPool2d(kernel_size=3, stride=2, padding=1, dilation=1, ceil_mode=False)
    (8): IdentityBlock(
      (Convpass): Sequential(
        (0): Conv2d(256, 384, kernel_size=(7, 7), stride=(1, 1), padding=(3, 3))
        (1): BatchNorm2d(384, eps=1e-05, momentum=0.1, affine=True, track_running_stats=True)
        (2): ReLU(inplace=True)
        (3): Conv2d(384, 512, kernel_size=(7, 7), stride=(1, 1), padding=(3, 3))
        (4): BatchNorm2d(512, eps=1e-05, momentum=0.1, affine=True, track_running_stats=True)
        (5): ReLU(inplace=True)
        (6): Conv2d(512, 512, kernel_size=(7, 7), stride=(3, 3), padding=(3, 3))
      )
      (identityPass): Conv2d(256, 512, kernel_size=(7, 7), stride=(3, 3), padding=(3, 3))
    )
    (9): BatchNorm2d(512, eps=1e-05, momentum=0.1, affine=True, track_running_stats=True)
    (10): ReLU(inplace=True)
    (11): MaxPool2d(kernel_size=3, stride=1, padding=0, dilation=1, ceil_mode=False)
    (12): Conv2d(512, 512, kernel_size=(3, 3), stride=(1, 1))
    (13): BatchNorm2d(512, eps=1e-05, momentum=0.1, affine=True, track_running_stats=True)
    (14): ReLU(inplace=True)
    (15): MaxPool2d(kernel_size=2, stride=2, padding=0, dilation=1, ceil_mode=False)
  )
  (classifier): Sequential(
    (0): Dropout(p=0.5, inplace=False)
    (1): Linear(in_features=512, out_features=256, bias=True)
    (2): BatchNorm1d(256, eps=1e-05, momentum=0.1, affine=True, track_running_stats=True)
    (3): ReLU(inplace=True)
    (4): Linear(in_features=256, out_features=2, bias=True)
  )
)
2020-04-22 23:32:56,758:WARNING: Loading Model
2020-04-22 23:32:56,914:WARNING: Model Loaded
2020-04-22 23:32:57,938:WARNING: ResNet(
  (features): Sequential(
    (0): Conv2d(1, 64, kernel_size=(7, 7), stride=(2, 2), padding=(3, 3), bias=False)
    (1): BatchNorm2d(64, eps=1e-05, momentum=0.1, affine=True, track_running_stats=True)
    (2): ReLU(inplace=True)
    (3): MaxPool2d(kernel_size=3, stride=2, padding=1, dilation=1, ceil_mode=False)
    (4): IdentityBlock(
      (Convpass): Sequential(
        (0): Conv2d(64, 160, kernel_size=(5, 5), stride=(1, 1), padding=(2, 2))
        (1): BatchNorm2d(160, eps=1e-05, momentum=0.1, affine=True, track_running_stats=True)
        (2): ReLU(inplace=True)
        (3): Conv2d(160, 256, kernel_size=(5, 5), stride=(1, 1), padding=(2, 2))
        (4): BatchNorm2d(256, eps=1e-05, momentum=0.1, affine=True, track_running_stats=True)
        (5): ReLU(inplace=True)
        (6): Conv2d(256, 256, kernel_size=(5, 5), stride=(2, 2), padding=(2, 2))
      )
      (identityPass): Conv2d(64, 256, kernel_size=(5, 5), stride=(2, 2), padding=(2, 2))
    )
    (5): BatchNorm2d(256, eps=1e-05, momentum=0.1, affine=True, track_running_stats=True)
    (6): ReLU(inplace=True)
    (7): MaxPool2d(kernel_size=3, stride=2, padding=1, dilation=1, ceil_mode=False)
    (8): IdentityBlock(
      (Convpass): Sequential(
        (0): Conv2d(256, 384, kernel_size=(7, 7), stride=(1, 1), padding=(3, 3))
        (1): BatchNorm2d(384, eps=1e-05, momentum=0.1, affine=True, track_running_stats=True)
        (2): ReLU(inplace=True)
        (3): Conv2d(384, 512, kernel_size=(7, 7), stride=(1, 1), padding=(3, 3))
        (4): BatchNorm2d(512, eps=1e-05, momentum=0.1, affine=True, track_running_stats=True)
        (5): ReLU(inplace=True)
        (6): Conv2d(512, 512, kernel_size=(7, 7), stride=(3, 3), padding=(3, 3))
      )
      (identityPass): Conv2d(256, 512, kernel_size=(7, 7), stride=(3, 3), padding=(3, 3))
    )
    (9): BatchNorm2d(512, eps=1e-05, momentum=0.1, affine=True, track_running_stats=True)
    (10): ReLU(inplace=True)
    (11): MaxPool2d(kernel_size=3, stride=1, padding=0, dilation=1, ceil_mode=False)
    (12): Conv2d(512, 512, kernel_size=(3, 3), stride=(1, 1))
    (13): BatchNorm2d(512, eps=1e-05, momentum=0.1, affine=True, track_running_stats=True)
    (14): ReLU(inplace=True)
    (15): MaxPool2d(kernel_size=2, stride=2, padding=0, dilation=1, ceil_mode=False)
  )
  (classifier): Sequential(
    (0): Dropout(p=0.5, inplace=False)
    (1): Linear(in_features=512, out_features=256, bias=True)
    (2): BatchNorm1d(256, eps=1e-05, momentum=0.1, affine=True, track_running_stats=True)
    (3): ReLU(inplace=True)
    (4): Linear(in_features=256, out_features=2, bias=True)
  )
)
2020-04-23 03:02:25,809:WARNING: Loading Model
2020-04-23 03:02:25,974:WARNING: Model Loaded
2020-04-23 03:02:27,043:WARNING: ResNet(
  (features): Sequential(
    (0): Conv2d(1, 64, kernel_size=(7, 7), stride=(2, 2), padding=(3, 3), bias=False)
    (1): BatchNorm2d(64, eps=1e-05, momentum=0.1, affine=True, track_running_stats=True)
    (2): ReLU(inplace=True)
    (3): MaxPool2d(kernel_size=3, stride=2, padding=1, dilation=1, ceil_mode=False)
    (4): IdentityBlock(
      (Convpass): Sequential(
        (0): Conv2d(64, 160, kernel_size=(5, 5), stride=(1, 1), padding=(2, 2))
        (1): BatchNorm2d(160, eps=1e-05, momentum=0.1, affine=True, track_running_stats=True)
        (2): ReLU(inplace=True)
        (3): Conv2d(160, 256, kernel_size=(5, 5), stride=(1, 1), padding=(2, 2))
        (4): BatchNorm2d(256, eps=1e-05, momentum=0.1, affine=True, track_running_stats=True)
        (5): ReLU(inplace=True)
        (6): Conv2d(256, 256, kernel_size=(5, 5), stride=(2, 2), padding=(2, 2))
      )
      (identityPass): Conv2d(64, 256, kernel_size=(5, 5), stride=(2, 2), padding=(2, 2))
    )
    (5): BatchNorm2d(256, eps=1e-05, momentum=0.1, affine=True, track_running_stats=True)
    (6): ReLU(inplace=True)
    (7): MaxPool2d(kernel_size=3, stride=2, padding=1, dilation=1, ceil_mode=False)
    (8): IdentityBlock(
      (Convpass): Sequential(
        (0): Conv2d(256, 384, kernel_size=(7, 7), stride=(1, 1), padding=(3, 3))
        (1): BatchNorm2d(384, eps=1e-05, momentum=0.1, affine=True, track_running_stats=True)
        (2): ReLU(inplace=True)
        (3): Conv2d(384, 512, kernel_size=(7, 7), stride=(1, 1), padding=(3, 3))
        (4): BatchNorm2d(512, eps=1e-05, momentum=0.1, affine=True, track_running_stats=True)
        (5): ReLU(inplace=True)
        (6): Conv2d(512, 512, kernel_size=(7, 7), stride=(3, 3), padding=(3, 3))
      )
      (identityPass): Conv2d(256, 512, kernel_size=(7, 7), stride=(3, 3), padding=(3, 3))
    )
    (9): BatchNorm2d(512, eps=1e-05, momentum=0.1, affine=True, track_running_stats=True)
    (10): ReLU(inplace=True)
    (11): MaxPool2d(kernel_size=3, stride=1, padding=0, dilation=1, ceil_mode=False)
    (12): Conv2d(512, 512, kernel_size=(3, 3), stride=(1, 1))
    (13): BatchNorm2d(512, eps=1e-05, momentum=0.1, affine=True, track_running_stats=True)
    (14): ReLU(inplace=True)
    (15): MaxPool2d(kernel_size=2, stride=2, padding=0, dilation=1, ceil_mode=False)
  )
  (classifier): Sequential(
    (0): Dropout(p=0.5, inplace=False)
    (1): Linear(in_features=512, out_features=256, bias=True)
    (2): BatchNorm1d(256, eps=1e-05, momentum=0.1, affine=True, track_running_stats=True)
    (3): ReLU(inplace=True)
    (4): Linear(in_features=256, out_features=2, bias=True)
  )
)
2020-04-23 03:21:42,337:WARNING: Loading Model
2020-04-23 03:21:42,499:WARNING: Model Loaded
2020-04-23 03:21:43,517:WARNING: ResNet(
  (features): Sequential(
    (0): Conv2d(1, 64, kernel_size=(7, 7), stride=(2, 2), padding=(3, 3), bias=False)
    (1): BatchNorm2d(64, eps=1e-05, momentum=0.1, affine=True, track_running_stats=True)
    (2): ReLU(inplace=True)
    (3): MaxPool2d(kernel_size=3, stride=2, padding=1, dilation=1, ceil_mode=False)
    (4): IdentityBlock(
      (Convpass): Sequential(
        (0): Conv2d(64, 160, kernel_size=(5, 5), stride=(1, 1), padding=(2, 2))
        (1): BatchNorm2d(160, eps=1e-05, momentum=0.1, affine=True, track_running_stats=True)
        (2): ReLU(inplace=True)
        (3): Conv2d(160, 256, kernel_size=(5, 5), stride=(1, 1), padding=(2, 2))
        (4): BatchNorm2d(256, eps=1e-05, momentum=0.1, affine=True, track_running_stats=True)
        (5): ReLU(inplace=True)
        (6): Conv2d(256, 256, kernel_size=(5, 5), stride=(2, 2), padding=(2, 2))
      )
      (identityPass): Conv2d(64, 256, kernel_size=(5, 5), stride=(2, 2), padding=(2, 2))
    )
    (5): BatchNorm2d(256, eps=1e-05, momentum=0.1, affine=True, track_running_stats=True)
    (6): ReLU(inplace=True)
    (7): MaxPool2d(kernel_size=3, stride=2, padding=1, dilation=1, ceil_mode=False)
    (8): IdentityBlock(
      (Convpass): Sequential(
        (0): Conv2d(256, 384, kernel_size=(7, 7), stride=(1, 1), padding=(3, 3))
        (1): BatchNorm2d(384, eps=1e-05, momentum=0.1, affine=True, track_running_stats=True)
        (2): ReLU(inplace=True)
        (3): Conv2d(384, 512, kernel_size=(7, 7), stride=(1, 1), padding=(3, 3))
        (4): BatchNorm2d(512, eps=1e-05, momentum=0.1, affine=True, track_running_stats=True)
        (5): ReLU(inplace=True)
        (6): Conv2d(512, 512, kernel_size=(7, 7), stride=(3, 3), padding=(3, 3))
      )
      (identityPass): Conv2d(256, 512, kernel_size=(7, 7), stride=(3, 3), padding=(3, 3))
    )
    (9): BatchNorm2d(512, eps=1e-05, momentum=0.1, affine=True, track_running_stats=True)
    (10): ReLU(inplace=True)
    (11): MaxPool2d(kernel_size=3, stride=1, padding=0, dilation=1, ceil_mode=False)
    (12): Conv2d(512, 512, kernel_size=(3, 3), stride=(1, 1))
    (13): BatchNorm2d(512, eps=1e-05, momentum=0.1, affine=True, track_running_stats=True)
    (14): ReLU(inplace=True)
    (15): MaxPool2d(kernel_size=2, stride=2, padding=0, dilation=1, ceil_mode=False)
  )
  (classifier): Sequential(
    (0): Dropout(p=0.5, inplace=False)
    (1): Linear(in_features=512, out_features=256, bias=True)
    (2): BatchNorm1d(256, eps=1e-05, momentum=0.1, affine=True, track_running_stats=True)
    (3): ReLU(inplace=True)
    (4): Linear(in_features=256, out_features=2, bias=True)
  )
)
2020-04-23 03:22:42,508:WARNING: Loading Model
2020-04-23 03:22:42,670:WARNING: Model Loaded
2020-04-23 03:22:43,692:WARNING: ResNet(
  (features): Sequential(
    (0): Conv2d(1, 64, kernel_size=(7, 7), stride=(2, 2), padding=(3, 3), bias=False)
    (1): BatchNorm2d(64, eps=1e-05, momentum=0.1, affine=True, track_running_stats=True)
    (2): ReLU(inplace=True)
    (3): MaxPool2d(kernel_size=3, stride=2, padding=1, dilation=1, ceil_mode=False)
    (4): IdentityBlock(
      (Convpass): Sequential(
        (0): Conv2d(64, 160, kernel_size=(5, 5), stride=(1, 1), padding=(2, 2))
        (1): BatchNorm2d(160, eps=1e-05, momentum=0.1, affine=True, track_running_stats=True)
        (2): ReLU(inplace=True)
        (3): Conv2d(160, 256, kernel_size=(5, 5), stride=(1, 1), padding=(2, 2))
        (4): BatchNorm2d(256, eps=1e-05, momentum=0.1, affine=True, track_running_stats=True)
        (5): ReLU(inplace=True)
        (6): Conv2d(256, 256, kernel_size=(5, 5), stride=(2, 2), padding=(2, 2))
      )
      (identityPass): Conv2d(64, 256, kernel_size=(5, 5), stride=(2, 2), padding=(2, 2))
    )
    (5): BatchNorm2d(256, eps=1e-05, momentum=0.1, affine=True, track_running_stats=True)
    (6): ReLU(inplace=True)
    (7): MaxPool2d(kernel_size=3, stride=2, padding=1, dilation=1, ceil_mode=False)
    (8): IdentityBlock(
      (Convpass): Sequential(
        (0): Conv2d(256, 384, kernel_size=(7, 7), stride=(1, 1), padding=(3, 3))
        (1): BatchNorm2d(384, eps=1e-05, momentum=0.1, affine=True, track_running_stats=True)
        (2): ReLU(inplace=True)
        (3): Conv2d(384, 512, kernel_size=(7, 7), stride=(1, 1), padding=(3, 3))
        (4): BatchNorm2d(512, eps=1e-05, momentum=0.1, affine=True, track_running_stats=True)
        (5): ReLU(inplace=True)
        (6): Conv2d(512, 512, kernel_size=(7, 7), stride=(3, 3), padding=(3, 3))
      )
      (identityPass): Conv2d(256, 512, kernel_size=(7, 7), stride=(3, 3), padding=(3, 3))
    )
    (9): BatchNorm2d(512, eps=1e-05, momentum=0.1, affine=True, track_running_stats=True)
    (10): ReLU(inplace=True)
    (11): MaxPool2d(kernel_size=3, stride=1, padding=0, dilation=1, ceil_mode=False)
    (12): Conv2d(512, 512, kernel_size=(3, 3), stride=(1, 1))
    (13): BatchNorm2d(512, eps=1e-05, momentum=0.1, affine=True, track_running_stats=True)
    (14): ReLU(inplace=True)
    (15): MaxPool2d(kernel_size=2, stride=2, padding=0, dilation=1, ceil_mode=False)
  )
  (classifier): Sequential(
    (0): Dropout(p=0.5, inplace=False)
    (1): Linear(in_features=512, out_features=256, bias=True)
    (2): BatchNorm1d(256, eps=1e-05, momentum=0.1, affine=True, track_running_stats=True)
    (3): ReLU(inplace=True)
    (4): Linear(in_features=256, out_features=2, bias=True)
  )
)
2020-04-23 03:23:01,497:WARNING: Loading Model
2020-04-23 03:23:01,657:WARNING: Model Loaded
2020-04-23 03:23:02,696:WARNING: ResNet(
  (features): Sequential(
    (0): Conv2d(1, 64, kernel_size=(7, 7), stride=(2, 2), padding=(3, 3), bias=False)
    (1): BatchNorm2d(64, eps=1e-05, momentum=0.1, affine=True, track_running_stats=True)
    (2): ReLU(inplace=True)
    (3): MaxPool2d(kernel_size=3, stride=2, padding=1, dilation=1, ceil_mode=False)
    (4): IdentityBlock(
      (Convpass): Sequential(
        (0): Conv2d(64, 160, kernel_size=(5, 5), stride=(1, 1), padding=(2, 2))
        (1): BatchNorm2d(160, eps=1e-05, momentum=0.1, affine=True, track_running_stats=True)
        (2): ReLU(inplace=True)
        (3): Conv2d(160, 256, kernel_size=(5, 5), stride=(1, 1), padding=(2, 2))
        (4): BatchNorm2d(256, eps=1e-05, momentum=0.1, affine=True, track_running_stats=True)
        (5): ReLU(inplace=True)
        (6): Conv2d(256, 256, kernel_size=(5, 5), stride=(2, 2), padding=(2, 2))
      )
      (identityPass): Conv2d(64, 256, kernel_size=(5, 5), stride=(2, 2), padding=(2, 2))
    )
    (5): BatchNorm2d(256, eps=1e-05, momentum=0.1, affine=True, track_running_stats=True)
    (6): ReLU(inplace=True)
    (7): MaxPool2d(kernel_size=3, stride=2, padding=1, dilation=1, ceil_mode=False)
    (8): IdentityBlock(
      (Convpass): Sequential(
        (0): Conv2d(256, 384, kernel_size=(7, 7), stride=(1, 1), padding=(3, 3))
        (1): BatchNorm2d(384, eps=1e-05, momentum=0.1, affine=True, track_running_stats=True)
        (2): ReLU(inplace=True)
        (3): Conv2d(384, 512, kernel_size=(7, 7), stride=(1, 1), padding=(3, 3))
        (4): BatchNorm2d(512, eps=1e-05, momentum=0.1, affine=True, track_running_stats=True)
        (5): ReLU(inplace=True)
        (6): Conv2d(512, 512, kernel_size=(7, 7), stride=(3, 3), padding=(3, 3))
      )
      (identityPass): Conv2d(256, 512, kernel_size=(7, 7), stride=(3, 3), padding=(3, 3))
    )
    (9): BatchNorm2d(512, eps=1e-05, momentum=0.1, affine=True, track_running_stats=True)
    (10): ReLU(inplace=True)
    (11): MaxPool2d(kernel_size=3, stride=1, padding=0, dilation=1, ceil_mode=False)
    (12): Conv2d(512, 512, kernel_size=(3, 3), stride=(1, 1))
    (13): BatchNorm2d(512, eps=1e-05, momentum=0.1, affine=True, track_running_stats=True)
    (14): ReLU(inplace=True)
    (15): MaxPool2d(kernel_size=2, stride=2, padding=0, dilation=1, ceil_mode=False)
  )
  (classifier): Sequential(
    (0): Dropout(p=0.5, inplace=False)
    (1): Linear(in_features=512, out_features=256, bias=True)
    (2): BatchNorm1d(256, eps=1e-05, momentum=0.1, affine=True, track_running_stats=True)
    (3): ReLU(inplace=True)
    (4): Linear(in_features=256, out_features=2, bias=True)
  )
)
2020-04-23 03:23:08,285:WARNING: Test: [9/10]
    Time 1.626 (0.556)
    Loss 49.2889 (67.0810)
    Accuracy Diabetes@ 0.879(0.8791)
        Diabetes F1 nan(nan)
            Diabetes recall 0.0000(0.0000)
            Diabetes precision 0.0000(0.0000)
    Accuracy Glaucoma@ 0.119(0.1188)
        Glaucoma F1 0.2167(0.2167)
            Glaucoma recall 1.0000(1.0000)
…
            Glaucoma precision 0.9212(0.9212)

2020-04-23 06:27:44,686:WARNING: Test: [9/10]
    Time 0.108 (0.228)
    Loss 20.0120 (12.3507)
    Accuracy Diabetes@ 0.960(0.9597)
        Diabetes F1 0.8310(0.8310)
            Diabetes recall 0.9572(0.9572)
            Diabetes precision 0.7342(0.7342)
    Accuracy Glaucoma@ 0.956(0.9556)
        Glaucoma F1 0.8128(0.8128)
            Glaucoma recall 0.7391(0.7391)
            Glaucoma precision 0.9027(0.9027)

2020-04-23 13:52:54,735:WARNING: Loading Model
2020-04-23 13:52:54,890:WARNING: Model Loaded
2020-04-23 13:52:56,154:WARNING: ResNet(
  (features): Sequential(
    (0): Conv2d(1, 64, kernel_size=(7, 7), stride=(2, 2), padding=(3, 3), bias=False)
    (1): BatchNorm2d(64, eps=1e-05, momentum=0.1, affine=True, track_running_stats=True)
    (2): ReLU(inplace=True)
    (3): MaxPool2d(kernel_size=3, stride=2, padding=1, dilation=1, ceil_mode=False)
    (4): IdentityBlock(
      (Convpass): Sequential(
        (0): Conv2d(64, 160, kernel_size=(5, 5), stride=(1, 1), padding=(2, 2))
        (1): BatchNorm2d(160, eps=1e-05, momentum=0.1, affine=True, track_running_stats=True)
        (2): ReLU(inplace=True)
        (3): Conv2d(160, 256, kernel_size=(5, 5), stride=(1, 1), padding=(2, 2))
        (4): BatchNorm2d(256, eps=1e-05, momentum=0.1, affine=True, track_running_stats=True)
        (5): ReLU(inplace=True)
        (6): Conv2d(256, 256, kernel_size=(5, 5), stride=(2, 2), padding=(2, 2))
      )
      (identityPass): Conv2d(64, 256, kernel_size=(5, 5), stride=(2, 2), padding=(2, 2))
    )
    (5): BatchNorm2d(256, eps=1e-05, momentum=0.1, affine=True, track_running_stats=True)
    (6): ReLU(inplace=True)
    (7): MaxPool2d(kernel_size=3, stride=2, padding=1, dilation=1, ceil_mode=False)
    (8): IdentityBlock(
      (Convpass): Sequential(
        (0): Conv2d(256, 384, kernel_size=(7, 7), stride=(1, 1), padding=(3, 3))
        (1): BatchNorm2d(384, eps=1e-05, momentum=0.1, affine=True, track_running_stats=True)
        (2): ReLU(inplace=True)
        (3): Conv2d(384, 512, kernel_size=(7, 7), stride=(1, 1), padding=(3, 3))
        (4): BatchNorm2d(512, eps=1e-05, momentum=0.1, affine=True, track_running_stats=True)
        (5): ReLU(inplace=True)
        (6): Conv2d(512, 512, kernel_size=(7, 7), stride=(3, 3), padding=(3, 3))
      )
      (identityPass): Conv2d(256, 512, kernel_size=(7, 7), stride=(3, 3), padding=(3, 3))
    )
    (9): BatchNorm2d(512, eps=1e-05, momentum=0.1, affine=True, track_running_stats=True)
    (10): ReLU(inplace=True)
    (11): MaxPool2d(kernel_size=3, stride=1, padding=0, dilation=1, ceil_mode=False)
    (12): Conv2d(512, 512, kernel_size=(3, 3), stride=(1, 1))
    (13): BatchNorm2d(512, eps=1e-05, momentum=0.1, affine=True, track_running_stats=True)
    (14): ReLU(inplace=True)
    (15): MaxPool2d(kernel_size=2, stride=2, padding=0, dilation=1, ceil_mode=False)
  )
  (classifier): Sequential(
    (0): Dropout(p=0.5, inplace=False)
    (1): Linear(in_features=512, out_features=256, bias=True)
    (2): BatchNorm1d(256, eps=1e-05, momentum=0.1, affine=True, track_running_stats=True)
    (3): ReLU(inplace=True)
    (4): Linear(in_features=256, out_features=2, bias=True)
  )
)
2020-04-23 13:55:54,164:WARNING: Loading Model
2020-04-23 13:55:54,320:WARNING: Model Loaded
2020-04-23 13:55:55,595:WARNING: ResNet(
  (features): Sequential(
    (0): Conv2d(1, 64, kernel_size=(7, 7), stride=(2, 2), padding=(3, 3), bias=False)
    (1): BatchNorm2d(64, eps=1e-05, momentum=0.1, affine=True, track_running_stats=True)
    (2): ReLU(inplace=True)
    (3): MaxPool2d(kernel_size=3, stride=2, padding=1, dilation=1, ceil_mode=False)
    (4): IdentityBlock(
      (Convpass): Sequential(
        (0): Conv2d(64, 160, kernel_size=(5, 5), stride=(1, 1), padding=(2, 2))
        (1): BatchNorm2d(160, eps=1e-05, momentum=0.1, affine=True, track_running_stats=True)
        (2): ReLU(inplace=True)
        (3): Conv2d(160, 256, kernel_size=(5, 5), stride=(1, 1), padding=(2, 2))
        (4): BatchNorm2d(256, eps=1e-05, momentum=0.1, affine=True, track_running_stats=True)
        (5): ReLU(inplace=True)
        (6): Conv2d(256, 256, kernel_size=(5, 5), stride=(2, 2), padding=(2, 2))
      )
      (identityPass): Conv2d(64, 256, kernel_size=(5, 5), stride=(2, 2), padding=(2, 2))
    )
    (5): BatchNorm2d(256, eps=1e-05, momentum=0.1, affine=True, track_running_stats=True)
    (6): ReLU(inplace=True)
    (7): MaxPool2d(kernel_size=3, stride=2, padding=1, dilation=1, ceil_mode=False)
    (8): IdentityBlock(
      (Convpass): Sequential(
        (0): Conv2d(256, 384, kernel_size=(7, 7), stride=(1, 1), padding=(3, 3))
        (1): BatchNorm2d(384, eps=1e-05, momentum=0.1, affine=True, track_running_stats=True)
        (2): ReLU(inplace=True)
        (3): Conv2d(384, 512, kernel_size=(7, 7), stride=(1, 1), padding=(3, 3))
        (4): BatchNorm2d(512, eps=1e-05, momentum=0.1, affine=True, track_running_stats=True)
        (5): ReLU(inplace=True)
        (6): Conv2d(512, 512, kernel_size=(7, 7), stride=(3, 3), padding=(3, 3))
      )
      (identityPass): Conv2d(256, 512, kernel_size=(7, 7), stride=(3, 3), padding=(3, 3))
    )
    (9): BatchNorm2d(512, eps=1e-05, momentum=0.1, affine=True, track_running_stats=True)
    (10): ReLU(inplace=True)
    (11): MaxPool2d(kernel_size=3, stride=1, padding=0, dilation=1, ceil_mode=False)
    (12): Conv2d(512, 512, kernel_size=(3, 3), stride=(1, 1))
    (13): BatchNorm2d(512, eps=1e-05, momentum=0.1, affine=True, track_running_stats=True)
    (14): ReLU(inplace=True)
    (15): MaxPool2d(kernel_size=2, stride=2, padding=0, dilation=1, ceil_mode=False)
  )
  (classifier): Sequential(
    (0): Dropout(p=0.5, inplace=False)
    (1): Linear(in_features=512, out_features=256, bias=True)
    (2): BatchNorm1d(256, eps=1e-05, momentum=0.1, affine=True, track_running_stats=True)
    (3): ReLU(inplace=True)
    (4): Linear(in_features=256, out_features=2, bias=True)
  )
)
2020-04-23 16:49:17,329:WARNING: Loading Model
2020-04-23 16:49:17,518:WARNING: Model Loaded
2020-04-23 16:49:18,801:WARNING: ResNet(
  (features): Sequential(
    (0): Conv2d(1, 64, kernel_size=(7, 7), stride=(2, 2), padding=(3, 3), bias=False)
    (1): BatchNorm2d(64, eps=1e-05, momentum=0.1, affine=True, track_running_stats=True)
    (2): ReLU(inplace=True)
    (3): MaxPool2d(kernel_size=3, stride=2, padding=1, dilation=1, ceil_mode=False)
    (4): IdentityBlock(
      (Convpass): Sequential(
        (0): Conv2d(64, 160, kernel_size=(5, 5), stride=(1, 1), padding=(2, 2))
        (1): BatchNorm2d(160, eps=1e-05, momentum=0.1, affine=True, track_running_stats=True)
        (2): ReLU(inplace=True)
        (3): Conv2d(160, 256, kernel_size=(5, 5), stride=(1, 1), padding=(2, 2))
        (4): BatchNorm2d(256, eps=1e-05, momentum=0.1, affine=True, track_running_stats=True)
        (5): ReLU(inplace=True)
        (6): Conv2d(256, 256, kernel_size=(5, 5), stride=(2, 2), padding=(2, 2))
      )
      (identityPass): Conv2d(64, 256, kernel_size=(5, 5), stride=(2, 2), padding=(2, 2))
    )
    (5): BatchNorm2d(256, eps=1e-05, momentum=0.1, affine=True, track_running_stats=True)
    (6): ReLU(inplace=True)
    (7): MaxPool2d(kernel_size=3, stride=2, padding=1, dilation=1, ceil_mode=False)
    (8): IdentityBlock(
      (Convpass): Sequential(
        (0): Conv2d(256, 384, kernel_size=(7, 7), stride=(1, 1), padding=(3, 3))
        (1): BatchNorm2d(384, eps=1e-05, momentum=0.1, affine=True, track_running_stats=True)
        (2): ReLU(inplace=True)
        (3): Conv2d(384, 512, kernel_size=(7, 7), stride=(1, 1), padding=(3, 3))
        (4): BatchNorm2d(512, eps=1e-05, momentum=0.1, affine=True, track_running_stats=True)
        (5): ReLU(inplace=True)
        (6): Conv2d(512, 512, kernel_size=(7, 7), stride=(3, 3), padding=(3, 3))
      )
      (identityPass): Conv2d(256, 512, kernel_size=(7, 7), stride=(3, 3), padding=(3, 3))
    )
    (9): BatchNorm2d(512, eps=1e-05, momentum=0.1, affine=True, track_running_stats=True)
    (10): ReLU(inplace=True)
    (11): MaxPool2d(kernel_size=3, stride=1, padding=0, dilation=1, ceil_mode=False)
    (12): Conv2d(512, 512, kernel_size=(3, 3), stride=(1, 1))
    (13): BatchNorm2d(512, eps=1e-05, momentum=0.1, affine=True, track_running_stats=True)
    (14): ReLU(inplace=True)
    (15): MaxPool2d(kernel_size=2, stride=2, padding=0, dilation=1, ceil_mode=False)
  )
  (classifier): Sequential(
    (0): Dropout(p=0.5, inplace=False)
    (1): Linear(in_features=512, out_features=256, bias=True)
    (2): BatchNorm1d(256, eps=1e-05, momentum=0.1, affine=True, track_running_stats=True)
    (3): ReLU(inplace=True)
    (4): Linear(in_features=256, out_features=2, bias=True)
  )
)
2020-04-23 16:49:25,463:WARNING: Test: [16/17]
    Time 1.029 (0.390)
    Loss 3.4846 (8.1795)
    Accuracy Diabetes@ 0.997(0.9970)
        Diabetes F1 0.9587(0.9587)
            Diabetes recall 1.0000(1.0000)
            Diabetes precision 0.9206(0.9206)
    Accuracy Glaucoma@ 0.999(0.9988)
        Glaucoma F1 0.9916(0.9916)
            Glaucoma recall 0.9833(0.9833)
            Glaucoma precision 1.0000(1.0000)

2020-04-23 17:02:36,128:WARNING: Loading Model
2020-04-23 17:02:36,286:WARNING: Model Loaded
2020-04-23 17:02:37,306:WARNING: ResNet(
  (features): Sequential(
    (0): Conv2d(1, 64, kernel_size=(7, 7), stride=(2, 2), padding=(3, 3), bias=False)
    (1): BatchNorm2d(64, eps=1e-05, momentum=0.1, affine=True, track_running_stats=True)
    (2): ReLU(inplace=True)
    (3): MaxPool2d(kernel_size=3, stride=2, padding=1, dilation=1, ceil_mode=False)
    (4): IdentityBlock(
      (Convpass): Sequential(
        (0): Conv2d(64, 160, kernel_size=(5, 5), stride=(1, 1), padding=(2, 2))
        (1): BatchNorm2d(160, eps=1e-05, momentum=0.1, affine=True, track_running_stats=True)
        (2): ReLU(inplace=True)
        (3): Conv2d(160, 256, kernel_size=(5, 5), stride=(1, 1), padding=(2, 2))
        (4): BatchNorm2d(256, eps=1e-05, momentum=0.1, affine=True, track_running_stats=True)
        (5): ReLU(inplace=True)
        (6): Conv2d(256, 256, kernel_size=(5, 5), stride=(2, 2), padding=(2, 2))
      )
      (identityPass): Conv2d(64, 256, kernel_size=(5, 5), stride=(2, 2), padding=(2, 2))
    )
    (5): BatchNorm2d(256, eps=1e-05, momentum=0.1, affine=True, track_running_stats=True)
    (6): ReLU(inplace=True)
    (7): MaxPool2d(kernel_size=3, stride=2, padding=1, dilation=1, ceil_mode=False)
    (8): IdentityBlock(
      (Convpass): Sequential(
        (0): Conv2d(256, 384, kernel_size=(7, 7), stride=(1, 1), padding=(3, 3))
        (1): BatchNorm2d(384, eps=1e-05, momentum=0.1, affine=True, track_running_stats=True)
        (2): ReLU(inplace=True)
        (3): Conv2d(384, 512, kernel_size=(7, 7), stride=(1, 1), padding=(3, 3))
        (4): BatchNorm2d(512, eps=1e-05, momentum=0.1, affine=True, track_running_stats=True)
        (5): ReLU(inplace=True)
        (6): Conv2d(512, 512, kernel_size=(7, 7), stride=(3, 3), padding=(3, 3))
      )
      (identityPass): Conv2d(256, 512, kernel_size=(7, 7), stride=(3, 3), padding=(3, 3))
    )
    (9): BatchNorm2d(512, eps=1e-05, momentum=0.1, affine=True, track_running_stats=True)
    (10): ReLU(inplace=True)
    (11): MaxPool2d(kernel_size=3, stride=1, padding=0, dilation=1, ceil_mode=False)
    (12): Conv2d(512, 512, kernel_size=(3, 3), stride=(1, 1))
    (13): BatchNorm2d(512, eps=1e-05, momentum=0.1, affine=True, track_running_stats=True)
    (14): ReLU(inplace=True)
    (15): MaxPool2d(kernel_size=2, stride=2, padding=0, dilation=1, ceil_mode=False)
  )
  (classifier): Sequential(
    (0): Dropout(p=0.5, inplace=False)
    (1): Linear(in_features=512, out_features=256, bias=True)
    (2): BatchNorm1d(256, eps=1e-05, momentum=0.1, affine=True, track_running_stats=True)
    (3): ReLU(inplace=True)
    (4): Linear(in_features=256, out_features=2, bias=True)
  )
)
2020-04-23 17:03:19,923:WARNING: Loading Model
2020-04-23 17:03:20,079:WARNING: Model Loaded
2020-04-23 17:03:21,082:WARNING: ResNet(
  (features): Sequential(
    (0): Conv2d(1, 64, kernel_size=(7, 7), stride=(2, 2), padding=(3, 3), bias=False)
    (1): BatchNorm2d(64, eps=1e-05, momentum=0.1, affine=True, track_running_stats=True)
    (2): ReLU(inplace=True)
    (3): MaxPool2d(kernel_size=3, stride=2, padding=1, dilation=1, ceil_mode=False)
    (4): IdentityBlock(
      (Convpass): Sequential(
        (0): Conv2d(64, 160, kernel_size=(5, 5), stride=(1, 1), padding=(2, 2))
        (1): BatchNorm2d(160, eps=1e-05, momentum=0.1, affine=True, track_running_stats=True)
        (2): ReLU(inplace=True)
        (3): Conv2d(160, 256, kernel_size=(5, 5), stride=(1, 1), padding=(2, 2))
        (4): BatchNorm2d(256, eps=1e-05, momentum=0.1, affine=True, track_running_stats=True)
        (5): ReLU(inplace=True)
        (6): Conv2d(256, 256, kernel_size=(5, 5), stride=(2, 2), padding=(2, 2))
      )
      (identityPass): Conv2d(64, 256, kernel_size=(5, 5), stride=(2, 2), padding=(2, 2))
    )
    (5): BatchNorm2d(256, eps=1e-05, momentum=0.1, affine=True, track_running_stats=True)
    (6): ReLU(inplace=True)
    (7): MaxPool2d(kernel_size=3, stride=2, padding=1, dilation=1, ceil_mode=False)
    (8): IdentityBlock(
      (Convpass): Sequential(
        (0): Conv2d(256, 384, kernel_size=(7, 7), stride=(1, 1), padding=(3, 3))
        (1): BatchNorm2d(384, eps=1e-05, momentum=0.1, affine=True, track_running_stats=True)
        (2): ReLU(inplace=True)
        (3): Conv2d(384, 512, kernel_size=(7, 7), stride=(1, 1), padding=(3, 3))
        (4): BatchNorm2d(512, eps=1e-05, momentum=0.1, affine=True, track_running_stats=True)
        (5): ReLU(inplace=True)
        (6): Conv2d(512, 512, kernel_size=(7, 7), stride=(3, 3), padding=(3, 3))
      )
      (identityPass): Conv2d(256, 512, kernel_size=(7, 7), stride=(3, 3), padding=(3, 3))
    )
    (9): BatchNorm2d(512, eps=1e-05, momentum=0.1, affine=True, track_running_stats=True)
    (10): ReLU(inplace=True)
    (11): MaxPool2d(kernel_size=3, stride=1, padding=0, dilation=1, ceil_mode=False)
    (12): Conv2d(512, 512, kernel_size=(3, 3), stride=(1, 1))
    (13): BatchNorm2d(512, eps=1e-05, momentum=0.1, affine=True, track_running_stats=True)
    (14): ReLU(inplace=True)
    (15): MaxPool2d(kernel_size=2, stride=2, padding=0, dilation=1, ceil_mode=False)
  )
  (classifier): Sequential(
    (0): Dropout(p=0.5, inplace=False)
    (1): Linear(in_features=512, out_features=256, bias=True)
    (2): BatchNorm1d(256, eps=1e-05, momentum=0.1, affine=True, track_running_stats=True)
    (3): ReLU(inplace=True)
    (4): Linear(in_features=256, out_features=2, bias=True)
  )
)
2020-04-23 17:07:37,120:WARNING: Loading Model
2020-04-23 17:07:37,279:WARNING: Model Loaded
2020-04-23 17:07:38,293:WARNING: ResNet(
  (features): Sequential(
    (0): Conv2d(1, 64, kernel_size=(7, 7), stride=(2, 2), padding=(3, 3), bias=False)
    (1): BatchNorm2d(64, eps=1e-05, momentum=0.1, affine=True, track_running_stats=True)
    (2): ReLU(inplace=True)
    (3): MaxPool2d(kernel_size=3, stride=2, padding=1, dilation=1, ceil_mode=False)
    (4): IdentityBlock(
      (Convpass): Sequential(
        (0): Conv2d(64, 160, kernel_size=(5, 5), stride=(1, 1), padding=(2, 2))
        (1): BatchNorm2d(160, eps=1e-05, momentum=0.1, affine=True, track_running_stats=True)
        (2): ReLU(inplace=True)
        (3): Conv2d(160, 256, kernel_size=(5, 5), stride=(1, 1), padding=(2, 2))
        (4): BatchNorm2d(256, eps=1e-05, momentum=0.1, affine=True, track_running_stats=True)
        (5): ReLU(inplace=True)
        (6): Conv2d(256, 256, kernel_size=(5, 5), stride=(2, 2), padding=(2, 2))
      )
      (identityPass): Conv2d(64, 256, kernel_size=(5, 5), stride=(2, 2), padding=(2, 2))
    )
    (5): BatchNorm2d(256, eps=1e-05, momentum=0.1, affine=True, track_running_stats=True)
    (6): ReLU(inplace=True)
    (7): MaxPool2d(kernel_size=3, stride=2, padding=1, dilation=1, ceil_mode=False)
    (8): IdentityBlock(
      (Convpass): Sequential(
        (0): Conv2d(256, 384, kernel_size=(7, 7), stride=(1, 1), padding=(3, 3))
        (1): BatchNorm2d(384, eps=1e-05, momentum=0.1, affine=True, track_running_stats=True)
        (2): ReLU(inplace=True)
        (3): Conv2d(384, 512, kernel_size=(7, 7), stride=(1, 1), padding=(3, 3))
        (4): BatchNorm2d(512, eps=1e-05, momentum=0.1, affine=True, track_running_stats=True)
        (5): ReLU(inplace=True)
        (6): Conv2d(512, 512, kernel_size=(7, 7), stride=(3, 3), padding=(3, 3))
      )
      (identityPass): Conv2d(256, 512, kernel_size=(7, 7), stride=(3, 3), padding=(3, 3))
    )
    (9): BatchNorm2d(512, eps=1e-05, momentum=0.1, affine=True, track_running_stats=True)
    (10): ReLU(inplace=True)
    (11): MaxPool2d(kernel_size=3, stride=1, padding=0, dilation=1, ceil_mode=False)
    (12): Conv2d(512, 512, kernel_size=(3, 3), stride=(1, 1))
    (13): BatchNorm2d(512, eps=1e-05, momentum=0.1, affine=True, track_running_stats=True)
    (14): ReLU(inplace=True)
    (15): MaxPool2d(kernel_size=2, stride=2, padding=0, dilation=1, ceil_mode=False)
  )
  (classifier): Sequential(
    (0): Dropout(p=0.5, inplace=False)
    (1): Linear(in_features=512, out_features=256, bias=True)
    (2): BatchNorm1d(256, eps=1e-05, momentum=0.1, affine=True, track_running_stats=True)
    (3): ReLU(inplace=True)
    (4): Linear(in_features=256, out_features=2, bias=True)
  )
)
2020-04-23 17:07:44,819:WARNING: Test: [16/17]
    Time 1.318 (0.382)
    Loss 17.0475 (33.5665)
    Accuracy Diabetes@ 0.965(0.9648)
        Diabetes F1 nan(nan)
            Diabetes recall 0.0000(0.0000)
            Diabetes precision 0.0000(0.0000)
    Accuracy Glaucoma@ 0.073(0.0727)
        Glaucoma F1 0.1375(0.1375)
            Glaucoma recall 1.0000(1.0000)
…
            Glaucoma precision 0.9067(0.9067)

2020-04-23 17:19:06,476:WARNING: Test: [16/17]
    Time 0.089 (0.176)
    Loss 0.1077 (3.4977)
    Accuracy Diabetes@ 0.967(0.9673)
        Diabetes F1 0.6582(0.6582)
            Diabetes recall 0.8966(0.8966)
            Diabetes precision 0.5200(0.5200)
    Accuracy Glaucoma@ 0.966(0.9661)
        Glaucoma F1 0.7200(0.7200)
            Glaucoma recall 0.6000(0.6000)
            Glaucoma precision 0.9000(0.9000)

2020-04-23 17:22:53,861:WARNING: Loading Model
2020-04-23 17:22:54,026:WARNING: Model Loaded
2020-04-23 17:22:55,027:WARNING: ResNet(
  (features): Sequential(
    (0): Conv2d(1, 64, kernel_size=(7, 7), stride=(2, 2), padding=(3, 3), bias=False)
    (1): BatchNorm2d(64, eps=1e-05, momentum=0.1, affine=True, track_running_stats=True)
    (2): ReLU(inplace=True)
    (3): MaxPool2d(kernel_size=3, stride=2, padding=1, dilation=1, ceil_mode=False)
    (4): IdentityBlock(
      (Convpass): Sequential(
        (0): Conv2d(64, 160, kernel_size=(5, 5), stride=(1, 1), padding=(2, 2))
        (1): BatchNorm2d(160, eps=1e-05, momentum=0.1, affine=True, track_running_stats=True)
        (2): ReLU(inplace=True)
        (3): Conv2d(160, 256, kernel_size=(5, 5), stride=(1, 1), padding=(2, 2))
        (4): BatchNorm2d(256, eps=1e-05, momentum=0.1, affine=True, track_running_stats=True)
        (5): ReLU(inplace=True)
        (6): Conv2d(256, 256, kernel_size=(5, 5), stride=(2, 2), padding=(2, 2))
      )
      (identityPass): Conv2d(64, 256, kernel_size=(5, 5), stride=(2, 2), padding=(2, 2))
    )
    (5): BatchNorm2d(256, eps=1e-05, momentum=0.1, affine=True, track_running_stats=True)
    (6): ReLU(inplace=True)
    (7): MaxPool2d(kernel_size=3, stride=2, padding=1, dilation=1, ceil_mode=False)
    (8): IdentityBlock(
      (Convpass): Sequential(
        (0): Conv2d(256, 384, kernel_size=(7, 7), stride=(1, 1), padding=(3, 3))
        (1): BatchNorm2d(384, eps=1e-05, momentum=0.1, affine=True, track_running_stats=True)
        (2): ReLU(inplace=True)
        (3): Conv2d(384, 512, kernel_size=(7, 7), stride=(1, 1), padding=(3, 3))
        (4): BatchNorm2d(512, eps=1e-05, momentum=0.1, affine=True, track_running_stats=True)
        (5): ReLU(inplace=True)
        (6): Conv2d(512, 512, kernel_size=(7, 7), stride=(3, 3), padding=(3, 3))
      )
      (identityPass): Conv2d(256, 512, kernel_size=(7, 7), stride=(3, 3), padding=(3, 3))
    )
    (9): BatchNorm2d(512, eps=1e-05, momentum=0.1, affine=True, track_running_stats=True)
    (10): ReLU(inplace=True)
    (11): MaxPool2d(kernel_size=3, stride=1, padding=0, dilation=1, ceil_mode=False)
    (12): Conv2d(512, 512, kernel_size=(3, 3), stride=(1, 1))
    (13): BatchNorm2d(512, eps=1e-05, momentum=0.1, affine=True, track_running_stats=True)
    (14): ReLU(inplace=True)
    (15): MaxPool2d(kernel_size=2, stride=2, padding=0, dilation=1, ceil_mode=False)
  )
  (classifier): Sequential(
    (0): Dropout(p=0.5, inplace=False)
    (1): Linear(in_features=512, out_features=256, bias=True)
    (2): BatchNorm1d(256, eps=1e-05, momentum=0.1, affine=True, track_running_stats=True)
    (3): ReLU(inplace=True)
    (4): Linear(in_features=256, out_features=2, bias=True)
  )
)
2020-04-23 17:23:01,899:WARNING: Test: [16/17]
    Time 1.262 (0.403)
    Loss 17.0475 (42.4690)
    Accuracy Diabetes@ 0.965(0.9648)
        Diabetes F1 nan(nan)
            Diabetes recall 0.0000(0.0000)
            Diabetes precision 0.0000(0.0000)
    Accuracy Glaucoma@ 0.073(0.0727)
        Glaucoma F1 0.1375(0.1375)
            Glaucoma recall 1.0000(1.0000)
…
            Glaucoma precision 0.9528(0.9528)

2020-04-23 21:19:02,291:WARNING: Test: [16/17]
    Time 0.089 (0.284)
    Loss 0.0264 (1.1553)
    Accuracy Diabetes@ 0.992(0.9915)
        Diabetes F1 0.8833(0.8833)
            Diabetes recall 0.9138(0.9138)
            Diabetes precision 0.8548(0.8548)
    Accuracy Glaucoma@ 0.992(0.9915)
        Glaucoma F1 0.9397(0.9397)
            Glaucoma recall 0.9083(0.9083)
            Glaucoma precision 0.9732(0.9732)

2020-04-23 23:09:50,120:WARNING: Loading Model
2020-04-23 23:09:50,280:WARNING: Model Loaded
2020-04-23 23:09:51,295:WARNING: ResNet(
  (features): Sequential(
    (0): Conv2d(1, 64, kernel_size=(7, 7), stride=(2, 2), padding=(3, 3), bias=False)
    (1): BatchNorm2d(64, eps=1e-05, momentum=0.1, affine=True, track_running_stats=True)
    (2): ReLU(inplace=True)
    (3): MaxPool2d(kernel_size=3, stride=2, padding=1, dilation=1, ceil_mode=False)
    (4): IdentityBlock(
      (Convpass): Sequential(
        (0): Conv2d(64, 160, kernel_size=(5, 5), stride=(1, 1), padding=(2, 2))
        (1): BatchNorm2d(160, eps=1e-05, momentum=0.1, affine=True, track_running_stats=True)
        (2): ReLU(inplace=True)
        (3): Conv2d(160, 256, kernel_size=(5, 5), stride=(1, 1), padding=(2, 2))
        (4): BatchNorm2d(256, eps=1e-05, momentum=0.1, affine=True, track_running_stats=True)
        (5): ReLU(inplace=True)
        (6): Conv2d(256, 256, kernel_size=(5, 5), stride=(2, 2), padding=(2, 2))
      )
      (identityPass): Conv2d(64, 256, kernel_size=(5, 5), stride=(2, 2), padding=(2, 2))
    )
    (5): BatchNorm2d(256, eps=1e-05, momentum=0.1, affine=True, track_running_stats=True)
    (6): ReLU(inplace=True)
    (7): MaxPool2d(kernel_size=3, stride=2, padding=1, dilation=1, ceil_mode=False)
    (8): IdentityBlock(
      (Convpass): Sequential(
        (0): Conv2d(256, 384, kernel_size=(7, 7), stride=(1, 1), padding=(3, 3))
        (1): BatchNorm2d(384, eps=1e-05, momentum=0.1, affine=True, track_running_stats=True)
        (2): ReLU(inplace=True)
        (3): Conv2d(384, 512, kernel_size=(7, 7), stride=(1, 1), padding=(3, 3))
        (4): BatchNorm2d(512, eps=1e-05, momentum=0.1, affine=True, track_running_stats=True)
        (5): ReLU(inplace=True)
        (6): Conv2d(512, 512, kernel_size=(7, 7), stride=(3, 3), padding=(3, 3))
      )
      (identityPass): Conv2d(256, 512, kernel_size=(7, 7), stride=(3, 3), padding=(3, 3))
    )
    (9): BatchNorm2d(512, eps=1e-05, momentum=0.1, affine=True, track_running_stats=True)
    (10): ReLU(inplace=True)
    (11): MaxPool2d(kernel_size=3, stride=1, padding=0, dilation=1, ceil_mode=False)
    (12): Conv2d(512, 512, kernel_size=(3, 3), stride=(1, 1))
    (13): BatchNorm2d(512, eps=1e-05, momentum=0.1, affine=True, track_running_stats=True)
    (14): ReLU(inplace=True)
    (15): MaxPool2d(kernel_size=2, stride=2, padding=0, dilation=1, ceil_mode=False)
  )
  (classifier): Sequential(
    (0): Dropout(p=0.5, inplace=False)
    (1): Linear(in_features=512, out_features=256, bias=True)
    (2): BatchNorm1d(256, eps=1e-05, momentum=0.1, affine=True, track_running_stats=True)
    (3): ReLU(inplace=True)
    (4): Linear(in_features=256, out_features=2, bias=True)
  )
)
2020-04-23 23:09:57,683:WARNING: Test: [16/17]
    Time 1.291 (0.374)
    Loss 17.0475 (42.4690)
    Accuracy Diabetes@ 0.965(0.9648)
        Diabetes F1 nan(nan)
            Diabetes recall 0.0000(0.0000)
            Diabetes precision 0.0000(0.0000)
    Accuracy Glaucoma@ 0.073(0.0727)
        Glaucoma F1 0.1375(0.1375)
            Glaucoma recall 1.0000(1.0000)
            Glaucoma precision 0.0738(0.0738)

2020-04-23 23:27:47,503:WARNING: Loading Model
2020-04-23 23:27:47,660:WARNING: Model Loaded
2020-04-23 23:27:48,654:WARNING: ResNet(
  (features): Sequential(
    (0): Conv2d(1, 64, kernel_size=(7, 7), stride=(2, 2), padding=(3, 3), bias=False)
    (1): BatchNorm2d(64, eps=1e-05, momentum=0.1, affine=True, track_running_stats=True)
    (2): ReLU(inplace=True)
    (3): MaxPool2d(kernel_size=3, stride=2, padding=1, dilation=1, ceil_mode=False)
    (4): IdentityBlock(
      (Convpass): Sequential(
        (0): Conv2d(64, 160, kernel_size=(5, 5), stride=(1, 1), padding=(2, 2))
        (1): BatchNorm2d(160, eps=1e-05, momentum=0.1, affine=True, track_running_stats=True)
        (2): ReLU(inplace=True)
        (3): Conv2d(160, 256, kernel_size=(5, 5), stride=(1, 1), padding=(2, 2))
        (4): BatchNorm2d(256, eps=1e-05, momentum=0.1, affine=True, track_running_stats=True)
        (5): ReLU(inplace=True)
        (6): Conv2d(256, 256, kernel_size=(5, 5), stride=(2, 2), padding=(2, 2))
      )
      (identityPass): Conv2d(64, 256, kernel_size=(5, 5), stride=(2, 2), padding=(2, 2))
    )
    (5): BatchNorm2d(256, eps=1e-05, momentum=0.1, affine=True, track_running_stats=True)
    (6): ReLU(inplace=True)
    (7): MaxPool2d(kernel_size=3, stride=2, padding=1, dilation=1, ceil_mode=False)
    (8): IdentityBlock(
      (Convpass): Sequential(
        (0): Conv2d(256, 384, kernel_size=(7, 7), stride=(1, 1), padding=(3, 3))
        (1): BatchNorm2d(384, eps=1e-05, momentum=0.1, affine=True, track_running_stats=True)
        (2): ReLU(inplace=True)
        (3): Conv2d(384, 512, kernel_size=(7, 7), stride=(1, 1), padding=(3, 3))
        (4): BatchNorm2d(512, eps=1e-05, momentum=0.1, affine=True, track_running_stats=True)
        (5): ReLU(inplace=True)
        (6): Conv2d(512, 512, kernel_size=(7, 7), stride=(3, 3), padding=(3, 3))
      )
      (identityPass): Conv2d(256, 512, kernel_size=(7, 7), stride=(3, 3), padding=(3, 3))
    )
    (9): BatchNorm2d(512, eps=1e-05, momentum=0.1, affine=True, track_running_stats=True)
    (10): ReLU(inplace=True)
    (11): MaxPool2d(kernel_size=3, stride=1, padding=0, dilation=1, ceil_mode=False)
    (12): Conv2d(512, 512, kernel_size=(3, 3), stride=(1, 1))
    (13): BatchNorm2d(512, eps=1e-05, momentum=0.1, affine=True, track_running_stats=True)
    (14): ReLU(inplace=True)
    (15): MaxPool2d(kernel_size=2, stride=2, padding=0, dilation=1, ceil_mode=False)
  )
  (classifier): Sequential(
    (0): Dropout(p=0.5, inplace=False)
    (1): Linear(in_features=512, out_features=256, bias=True)
    (2): BatchNorm1d(256, eps=1e-05, momentum=0.1, affine=True, track_running_stats=True)
    (3): ReLU(inplace=True)
    (4): Linear(in_features=256, out_features=2, bias=True)
  )
)
2020-04-23 23:27:54,803:WARNING: Test: [16/17]
    Time 1.192 (0.360)
    Loss 17.0475 (33.5665)
    Accuracy Diabetes@ 0.965(0.9648)
        Diabetes F1 nan(nan)
            Diabetes recall 0.0000(0.0000)
            Diabetes precision 0.0000(0.0000)
    Accuracy Glaucoma@ 0.073(0.0727)
        Glaucoma F1 0.1375(0.1375)
            Glaucoma recall 1.0000(1.0000)
…
            Glaucoma precision 0.9835(0.9835)

2020-04-24 02:42:10,772:WARNING: Test: [16/17]
    Time 0.086 (0.220)
    Loss 0.1812 (1.2906)
    Accuracy Diabetes@ 0.996(0.9964)
        Diabetes F1 0.9500(0.9500)
            Diabetes recall 0.9828(0.9828)
            Diabetes precision 0.9194(0.9194)
    Accuracy Glaucoma@ 0.997(0.9970)
        Glaucoma F1 0.9794(0.9794)
            Glaucoma recall 0.9917(0.9917)
            Glaucoma precision 0.9675(0.9675)

2020-04-28 22:52:52,646:WARNING: Loading Model
2020-04-28 22:52:52,913:WARNING: Model Loaded
2020-04-28 22:52:56,759:WARNING: ResNet(
  (features): Sequential(
    (0): Conv2d(1, 64, kernel_size=(7, 7), stride=(2, 2), padding=(3, 3), bias=False)
    (1): BatchNorm2d(64, eps=1e-05, momentum=0.1, affine=True, track_running_stats=True)
    (2): ReLU(inplace=True)
    (3): MaxPool2d(kernel_size=3, stride=2, padding=1, dilation=1, ceil_mode=False)
    (4): IdentityBlock(
      (Convpass): Sequential(
        (0): Conv2d(64, 160, kernel_size=(5, 5), stride=(1, 1), padding=(2, 2))
        (1): BatchNorm2d(160, eps=1e-05, momentum=0.1, affine=True, track_running_stats=True)
        (2): ReLU(inplace=True)
        (3): Conv2d(160, 256, kernel_size=(5, 5), stride=(1, 1), padding=(2, 2))
        (4): BatchNorm2d(256, eps=1e-05, momentum=0.1, affine=True, track_running_stats=True)
        (5): ReLU(inplace=True)
        (6): Conv2d(256, 256, kernel_size=(5, 5), stride=(2, 2), padding=(2, 2))
      )
      (identityPass): Conv2d(64, 256, kernel_size=(5, 5), stride=(2, 2), padding=(2, 2))
    )
    (5): BatchNorm2d(256, eps=1e-05, momentum=0.1, affine=True, track_running_stats=True)
    (6): ReLU(inplace=True)
    (7): MaxPool2d(kernel_size=3, stride=2, padding=1, dilation=1, ceil_mode=False)
    (8): IdentityBlock(
      (Convpass): Sequential(
        (0): Conv2d(256, 384, kernel_size=(7, 7), stride=(1, 1), padding=(3, 3))
        (1): BatchNorm2d(384, eps=1e-05, momentum=0.1, affine=True, track_running_stats=True)
        (2): ReLU(inplace=True)
        (3): Conv2d(384, 512, kernel_size=(7, 7), stride=(1, 1), padding=(3, 3))
        (4): BatchNorm2d(512, eps=1e-05, momentum=0.1, affine=True, track_running_stats=True)
        (5): ReLU(inplace=True)
        (6): Conv2d(512, 512, kernel_size=(7, 7), stride=(3, 3), padding=(3, 3))
      )
      (identityPass): Conv2d(256, 512, kernel_size=(7, 7), stride=(3, 3), padding=(3, 3))
    )
    (9): BatchNorm2d(512, eps=1e-05, momentum=0.1, affine=True, track_running_stats=True)
    (10): ReLU(inplace=True)
    (11): MaxPool2d(kernel_size=3, stride=1, padding=0, dilation=1, ceil_mode=False)
    (12): Conv2d(512, 512, kernel_size=(3, 3), stride=(1, 1))
    (13): BatchNorm2d(512, eps=1e-05, momentum=0.1, affine=True, track_running_stats=True)
    (14): ReLU(inplace=True)
    (15): MaxPool2d(kernel_size=2, stride=2, padding=0, dilation=1, ceil_mode=False)
  )
  (classifier): Sequential(
    (0): Dropout(p=0.5, inplace=False)
    (1): Linear(in_features=512, out_features=256, bias=True)
    (2): BatchNorm1d(256, eps=1e-05, momentum=0.1, affine=True, track_running_stats=True)
    (3): ReLU(inplace=True)
    (4): Linear(in_features=256, out_features=2, bias=True)
  )
)
2020-04-28 22:53:05,394:WARNING: Test: [16/17]
    Time 0.945 (0.506)
    Loss 129.1090 (248.2740)
    Accuracy Diabetes@ 0.473(0.4733)
        Diabetes F1 0.1012(0.1012)
            Diabetes recall 0.8276(0.8276)
            Diabetes precision 0.0539(0.0539)
    Accuracy Glaucoma@ 0.575(0.5752)
        Glaucoma F1 0.2228(0.2228)
            Glaucoma recall 0.8250(0.8250)
            Glaucoma precision 0.1288(0.1288)

2020-04-28 22:53:40,427:WARNING: Loading Model
2020-04-28 22:53:40,590:WARNING: Model Loaded
2020-04-28 22:53:41,955:WARNING: ResNet(
  (features): Sequential(
    (0): Conv2d(1, 64, kernel_size=(7, 7), stride=(2, 2), padding=(3, 3), bias=False)
    (1): BatchNorm2d(64, eps=1e-05, momentum=0.1, affine=True, track_running_stats=True)
    (2): ReLU(inplace=True)
    (3): MaxPool2d(kernel_size=3, stride=2, padding=1, dilation=1, ceil_mode=False)
    (4): IdentityBlock(
      (Convpass): Sequential(
        (0): Conv2d(64, 160, kernel_size=(5, 5), stride=(1, 1), padding=(2, 2))
        (1): BatchNorm2d(160, eps=1e-05, momentum=0.1, affine=True, track_running_stats=True)
        (2): ReLU(inplace=True)
        (3): Conv2d(160, 256, kernel_size=(5, 5), stride=(1, 1), padding=(2, 2))
        (4): BatchNorm2d(256, eps=1e-05, momentum=0.1, affine=True, track_running_stats=True)
        (5): ReLU(inplace=True)
        (6): Conv2d(256, 256, kernel_size=(5, 5), stride=(2, 2), padding=(2, 2))
      )
      (identityPass): Conv2d(64, 256, kernel_size=(5, 5), stride=(2, 2), padding=(2, 2))
    )
    (5): BatchNorm2d(256, eps=1e-05, momentum=0.1, affine=True, track_running_stats=True)
    (6): ReLU(inplace=True)
    (7): MaxPool2d(kernel_size=3, stride=2, padding=1, dilation=1, ceil_mode=False)
    (8): IdentityBlock(
      (Convpass): Sequential(
        (0): Conv2d(256, 384, kernel_size=(7, 7), stride=(1, 1), padding=(3, 3))
        (1): BatchNorm2d(384, eps=1e-05, momentum=0.1, affine=True, track_running_stats=True)
        (2): ReLU(inplace=True)
        (3): Conv2d(384, 512, kernel_size=(7, 7), stride=(1, 1), padding=(3, 3))
        (4): BatchNorm2d(512, eps=1e-05, momentum=0.1, affine=True, track_running_stats=True)
        (5): ReLU(inplace=True)
        (6): Conv2d(512, 512, kernel_size=(7, 7), stride=(3, 3), padding=(3, 3))
      )
      (identityPass): Conv2d(256, 512, kernel_size=(7, 7), stride=(3, 3), padding=(3, 3))
    )
    (9): BatchNorm2d(512, eps=1e-05, momentum=0.1, affine=True, track_running_stats=True)
    (10): ReLU(inplace=True)
    (11): MaxPool2d(kernel_size=3, stride=1, padding=0, dilation=1, ceil_mode=False)
    (12): Conv2d(512, 512, kernel_size=(3, 3), stride=(1, 1))
    (13): BatchNorm2d(512, eps=1e-05, momentum=0.1, affine=True, track_running_stats=True)
    (14): ReLU(inplace=True)
    (15): MaxPool2d(kernel_size=2, stride=2, padding=0, dilation=1, ceil_mode=False)
  )
  (classifier): Sequential(
    (0): Dropout(p=0.5, inplace=False)
    (1): Linear(in_features=512, out_features=256, bias=True)
    (2): BatchNorm1d(256, eps=1e-05, momentum=0.1, affine=True, track_running_stats=True)
    (3): ReLU(inplace=True)
    (4): Linear(in_features=256, out_features=2, bias=True)
  )
)
2020-04-28 22:53:48,515:WARNING: Test: [16/17]
    Time 1.232 (0.384)
    Loss 129.1090 (248.2741)
    Accuracy Diabetes@ 0.473(0.4733)
        Diabetes F1 0.1012(0.1012)
            Diabetes recall 0.8276(0.8276)
            Diabetes precision 0.0539(0.0539)
    Accuracy Glaucoma@ 0.575(0.5752)
        Glaucoma F1 0.2228(0.2228)
            Glaucoma recall 0.8250(0.8250)
            Glaucoma precision 0.1288(0.1288)

2020-04-29 06:03:29,654:WARNING: Loading Model
2020-04-29 06:03:29,826:WARNING: Model Loaded
2020-04-29 06:03:33,585:WARNING: ResNet(
  (features): Sequential(
    (0): Conv2d(1, 64, kernel_size=(7, 7), stride=(2, 2), padding=(3, 3), bias=False)
    (1): BatchNorm2d(64, eps=1e-05, momentum=0.1, affine=True, track_running_stats=True)
    (2): ReLU(inplace=True)
    (3): MaxPool2d(kernel_size=3, stride=2, padding=1, dilation=1, ceil_mode=False)
    (4): IdentityBlock(
      (Convpass): Sequential(
        (0): Conv2d(64, 160, kernel_size=(5, 5), stride=(1, 1), padding=(2, 2))
        (1): BatchNorm2d(160, eps=1e-05, momentum=0.1, affine=True, track_running_stats=True)
        (2): ReLU(inplace=True)
        (3): Conv2d(160, 256, kernel_size=(5, 5), stride=(1, 1), padding=(2, 2))
        (4): BatchNorm2d(256, eps=1e-05, momentum=0.1, affine=True, track_running_stats=True)
        (5): ReLU(inplace=True)
        (6): Conv2d(256, 256, kernel_size=(5, 5), stride=(2, 2), padding=(2, 2))
      )
      (identityPass): Conv2d(64, 256, kernel_size=(5, 5), stride=(2, 2), padding=(2, 2))
    )
    (5): BatchNorm2d(256, eps=1e-05, momentum=0.1, affine=True, track_running_stats=True)
    (6): ReLU(inplace=True)
    (7): MaxPool2d(kernel_size=3, stride=2, padding=1, dilation=1, ceil_mode=False)
    (8): IdentityBlock(
      (Convpass): Sequential(
        (0): Conv2d(256, 384, kernel_size=(7, 7), stride=(1, 1), padding=(3, 3))
        (1): BatchNorm2d(384, eps=1e-05, momentum=0.1, affine=True, track_running_stats=True)
        (2): ReLU(inplace=True)
        (3): Conv2d(384, 512, kernel_size=(7, 7), stride=(1, 1), padding=(3, 3))
        (4): BatchNorm2d(512, eps=1e-05, momentum=0.1, affine=True, track_running_stats=True)
        (5): ReLU(inplace=True)
        (6): Conv2d(512, 512, kernel_size=(7, 7), stride=(3, 3), padding=(3, 3))
      )
      (identityPass): Conv2d(256, 512, kernel_size=(7, 7), stride=(3, 3), padding=(3, 3))
    )
    (9): BatchNorm2d(512, eps=1e-05, momentum=0.1, affine=True, track_running_stats=True)
    (10): ReLU(inplace=True)
    (11): MaxPool2d(kernel_size=3, stride=1, padding=0, dilation=1, ceil_mode=False)
    (12): Conv2d(512, 512, kernel_size=(3, 3), stride=(1, 1))
    (13): BatchNorm2d(512, eps=1e-05, momentum=0.1, affine=True, track_running_stats=True)
    (14): ReLU(inplace=True)
    (15): MaxPool2d(kernel_size=2, stride=2, padding=0, dilation=1, ceil_mode=False)
  )
  (classifier): Sequential(
    (0): Dropout(p=0.5, inplace=False)
    (1): Linear(in_features=512, out_features=256, bias=True)
    (2): BatchNorm1d(256, eps=1e-05, momentum=0.1, affine=True, track_running_stats=True)
    (3): ReLU(inplace=True)
    (4): Linear(in_features=256, out_features=2, bias=True)
  )
)
2020-04-29 06:03:41,225:WARNING: Test: [16/17]
    Time 1.049 (0.448)
    Loss 129.1090 (248.2741)
    Accuracy Diabetes@ 0.473(0.4733)
        Diabetes F1 0.1012(0.1012)
            Diabetes recall 0.8276(0.8276)
            Diabetes precision 0.0539(0.0539)
    Accuracy Glaucoma@ 0.575(0.5752)
        Glaucoma F1 0.2228(0.2228)
            Glaucoma recall 0.8250(0.8250)
…
